layerout_tsne.npy (npy, 322176 bytes, 1 tensors)

array f4 [10064, 4, 2]
00000000: 47ea 78c2 4831 95c1 7e9b 83c2 9305 4dc1
00000010: 48fc 8ac2 2d7d 4dc1 aba9 58c2 22f8 a941
00000020: acce 83c1 b675 3fc2 a020 b6c1 46d9 13c2
00000030: f409 86c1 6254 27c2 06d6 fec0 50c4 3342
00000040: a90e 9440 4707 23c2 0416 9840 a8e6 30c2
00000050: b3d8 9540 920d 2dc2 aa0c 2b41 eb2f 2842
00000060: 7538 62c1 0f2a 6842 00ac cbc0 3aa5 e841
00000070: 92cd 07c1 c30c cf41 99a5 5cc1 1164 d0c1
00000080: bbbd 4841 42d0 2941 e434 4441 b821 9140
00000090: 2f47 2f41 36e7 b540 5732 0f41 7caf b5c0
000000a0: 12b6 3b42 29a1 9441 34b6 2a42 2ed1 8641
000000b0: b055 2842 b142 7241 936e 1f42 6543 aec1
000000c0: da09 4bc2 0119 1842 c26e 33c2 6e97 1042
000000d0: 8a39 30c2 cda9 1842 eee4 4ac2 df93 06c2
000000e0: c879 943f 469b 03c2 b0a5 dc3e 34a0 0cc2
000000f0: af14 5ac0 ff99 19c2 fa00 b440 b09e 1442
00000100: b3c3 c5c1 cde5 2642 c40e 8bc1 704e 0542
00000110: 6075 87c1 f9fa ee41 99a1 b5c1 7e8d e0c1
00000120: a468 b842 2bc8 37c0 1ef2 a742 d042 4b40
00000130: b78b a342 9e2d de40 2293 9d42 dcb7 70c1
00000140: f8ae 83c2 1be7 01c2 e984 62c2 df26 9cc1
00000150: f5b3 6ec2 c091 a1c1 7b18 61c2 e264 0a42
00000160: 0dd8 84c1 04c2 66c2 f8a1 c9c1 8a67 74c2
00000170: b542 adc1 ec88 62c2 badc 47c1 a9e1 7c42
00000180: 1032 0b42 ca8a 40c2 fba2 f841 cfab 42c2
00000190: 530e f841 2313 3ec2 d1ee 0442 605a e741
000001a0: 4e99 bbc1 0b31 9641 2833 92c1 fbac 9641
000001b0: ae27 abc1 8213 8b41 88b7 dac1 85cb 3bc1
000001c0: 081b bb40 27da 7e41 8644 d240 72fd cc40
000001d0: 38a6 ab40 5016 cd40 919c be3f 9a30 26c1
000001e0: f642 4e42 ac42 c441 905f 4242 f919 bd41
000001f0: f85b 3742 a570 b541 7f71 3042 6852 06c2
00000200: fd91 6dc1 0965 93c1 0295 80c1 b35b b0c1
00000210: 43fd 77c1 b2ba c7c1 95f6 4cc1 8bbd f641
00000220: 5b2e 4d42 1043 da41 f50d 3742 af5b ce41
00000230: d038 2d42 38b6 c841 728d 2242 6bfb 01c2
00000240: 3d9e d3c1 8144 8841 150e b1c1 ff28 8341
00000250: 24e1 e9c1 844b 8c41 9a9c 00c2 9ae1 7bc1
00000260: 3fef 43c2 1a77 4ac2 849a 45c2 ff37 2ec2
00000270: 337b 31c2 556a 22c2 9d93 17c2 c28e 4d42
00000280: b9e6 21c2 22b0 a341 5a8d 07c2 6e87 8e41
00000290: 7f95 0fc2 d305 7941 1dd0 24c2 9b93 3cc1
000002a0: c006 f9be 7584 ae40 7407 913f 2bec 01c0
000002b0: 200b a93e 3697 2ec0 372b 3140 7c7e 6bbf
000002c0: 4612 fac1 2ad4 9bc1 d940 343f c880 1cc0
000002d0: 7eff f63b ef9c 5ac0 6ced b9c1 38ca 7940
000002e0: 30f3 acc1 74a3 4b41 1fa3 81c1 1122 4541
000002f0: 6cd4 97c1 42a3 3e41 65b7 a3c1 8515 fdc0
00000300: 95d5 a6c1 55ff 4f41 7ed8 80c1 71a8 5541
00000310: a32e a1c1 dd86 3341 7a31 a5c1 23c8 22c1
00000320: 6562 51c2 c143 3442 8833 3dc2 8f4b 2442
00000330: 6dd4 33c2 3a84 3542 15cd 48c2 273e 28c2
00000340: d021 6a42 59a2 c9be d2a3 6b42 0f96 1fbf
00000350: 0fdb 5a42 2ebf f4bf 8cf1 5f42 b30e 66c0
00000360: 0262 7dc2 8563 12c2 8fb3 59c2 f728 cac1
00000370: d03c 60c2 8ed8 c6c1 574b 49c2 3cae 1542
00000380: fc02 8f40 ab6e 6942 7dd9 3dc0 7825 7e42
00000390: 04c9 90c0 739c 6942 4b4e fbc0 2973 6bc2
000003a0: 4648 08c1 d2dc a3c2 67df 86c1 5ce7 a3c2
000003b0: c243 bec0 8ee7 a3c2 bb29 7e40 91cb a942
000003c0: 330e 2ac1 0b40 c6c1 60a4 3ec1 6b2d d1c1
000003d0: 57af 18c1 9a94 e3c1 821e b7c0 9ecf 0842
000003e0: e437 48c2 7067 0642 9908 2cc2 bb17 fb41
000003f0: 2219 2ec2 fe6c 0642 8cfd 3bc2 6701 11c2
-62.228786 -18.649063 -65.803696 -12.813861 -69.49274 -12.8430605 -54.16569 21.246159
-16.475914 -47.864952 -22.76593 -36.96218 -16.75486 -41.832405 -7.963626 44.94171
4.6267896 -40.757107 4.7526875 -44.22525 4.6827025 -43.263252 10.690592 42.046795
-14.138783 58.041073 -6.364746 29.080677 -8.487688 25.881231 -13.790429 -26.04886
12.546321 10.613344 12.262913 4.535366 10.954879 5.684474 8.94979 -5.6776714
46.927803 18.578691 42.677933 16.852139 42.08368 15.141282 39.857983 -21.782907
-50.75962 38.024418 -44.858162 36.14788 -44.05619 38.16582 -50.723564 -33.644405
1.1599665 -32.901634 0.4309516 -35.15645 -3.4075124 -38.400387 5.625119 37.15497
-24.720556 41.724415 -17.38221 33.3266 -16.932312 29.872545 -22.703905 -28.069088
92.20438 -2.8715923 83.972885 3.175953 81.77288 6.9430685 78.78737 -15.044888
-65.841736 -32.47569 -56.629795 -19.51898 -59.67574 -20.196167 -56.273907 34.59852
-16.605494 -57.68947 -25.204086 -61.101112 -21.657572 -56.633713 -12.491388 63.22037
34.79889 -48.135536 31.07958 -48.66778 31.006994 -47.51869 33.23322 28.919128
-23.449856 18.773947 -18.274979 18.834463 -21.394375 17.384525 -27.339615 -11.737187
5.8470497 15.92826 6.5708647 6.405938 5.3640404 6.4089737 1.489153 -10.386866
51.56539 24.532555 48.593323 23.637682 45.839813 22.680002 44.110836 -33.580475
-14.848142 -18.424334 -16.072758 -22.044775 -15.499331 -24.96616 -12.810201 30.84255
51.29527 27.282745 45.76363 25.794767 43.30548 25.088974 40.63813 -32.495525
-26.452265 17.03345 -22.131876 16.395018 -29.234932 17.536873 -32.15293 -15.7425785
-48.98364 -50.61631 -49.400894 -43.554684 -44.37031 -40.60384 -37.894154 51.389412
-40.475315 20.461002 -33.88804 17.816128 -35.895992 15.563922 -41.203236 -11.7860365
-0.48637962 5.453669 1.13304 -2.0300395 0.330163 -2.7279792 2.7682626 -0.91989875
-31.258923 -19.478596 0.7041145 -2.4453602 0.0075377813 -3.4158285 -23.240929 3.9029675
-21.618744 12.727406 -16.204649 12.320817 -18.978722 11.914858 -20.464548 -7.908877
-20.854288 12.999837 -16.10571 13.353623 -20.147772 11.220426 -20.649158 -10.1738615
-52.34609 45.066166 -47.300323 41.073788 -44.957447 45.379128 -50.200275 -42.060696
58.53302 -0.39381674 58.90998 -0.62338346 54.713924 -1.9120843 55.985886 -3.5946472
-63.34571 -36.597187 -54.42535 -25.270002 -56.059387 -24.85574 -50.323574 37.42015
4.4691143 58.358074 -2.9663994 63.53659 -4.524538 58.402782 -7.8533072 -58.86246
-8.517645 -81.93129 -16.859083 -81.95187 -5.945771 -81.952255 3.971297 84.89759
-10.628467 -24.781271 -11.915131 -26.147177 -9.542808 -28.44756 -5.722474 34.20275
-50.05458 33.601013 -43.008396 31.386587 -43.524544 33.606438 -46.997604 -36.25137
